…
uires_grad)\nprint(f\"\\nTotal Parameters: {total_params:,}\")\nprint(f\"Trainable Parameters: {trainable_params:,}\")","metadata":{"trusted":true,"execution":{"iopub.status.busy":"2025-12-09T18:15:59.031215Z","iopub.execute_input":"2025-12-09T18:15:59.032294Z","iopub.status.idle":"2025-12-09T18:15:59.058002Z","shell.execute_reply.started":"2025-12-09T18:15:59.032253Z","shell.execute_reply":"2025-12-09T18:15:59.056960Z"}},"outputs":[{"name":"stdout","text":"\nModel Architecture:\n──────────────────────────────────────────────────────────────────────\nENoseNet(\n  (encoder): Sequential(\n    (0): Linear(in_features=6, out_features=32, bias=True)\n    (1): BatchNorm1d(32, eps=1e-05, momentum=0.1, affine=True, track_running_stats=True)\n    (2): ReLU()\n    (3): Dropout(p=0.3, inplace=False)\n    (4): Linear(in_features=32, out_features=16, bias=True)\n    (5): BatchNorm1d(16, eps=1e-05, momentum=0.1, affine=True, track_running_stats=True)\n    (6): ReLU()\n    (7): Dropout(p=0.3, inplace=False)\n    (8): Linear(in_features=16, out_features=8, bias=True)\n    (9): BatchNorm1d(8, eps=1e-05, momentum=0.1, affine=True, track_running_stats=True)\n    (10): ReLU()\n  )\n  (decoder): Sequential(\n    (0): Linear(in_features=8, out_features=16, bias=True)\n    (1): BatchNorm1d(16, eps=1e-05, momentum=0.1, affine=True, track_running_stats=True)\n    (2): ReLU()\n    (3): Linear(in_features=16, out_features=32, bias=True)\n    (4): BatchNorm1d(32, eps=1e-05, momentum=0.1, affine=True, track_running_stats=True)\n    (5): ReLU()\n    (6): Linear(in_features=32, out_features=6, bias=True)\n  )\n  (classifier): Linear(in_features=8, out_features=1, bias=True)\n)\n\nTotal Parameters: 1,991\nTrainable Parameters: 1,991\n","output_type":"stream"}],"execution_count":112},{"cell_type":"code","source":"# ============================================================================\n# CELL 6: DATA PREPARATION FOR PYTORCH\n# ============================================================================\n\nprint(\"=\"*70)\
…
